misc/model.pt (torch, 1933 bytes, 6 tensors)

fc1.weight f4 [2, 3]
00000000: 3b39 b73e 5c52 3c3d 2eea 95be 9a0b 433e
00000010: 4507 b03c 33f2 04be
0.3578585 0.04597698 -0.29280227 0.19047394 0.021487841 -0.12983017

fc1.bias f4 [2]
00000000: ba00 a33d 5e42 fe3e
0.07959123 0.4966001

qnn.weight f4 [4]
00000000: d4aa 9ebf cb07 0d3f 4a22 c8bd d003 053f
-1.2395883 0.55090016 -0.09772165 0.5195894

qnn._weights f4 [4]
00000000: d4aa 9ebf cb07 0d3f 4a22 c8bd d003 053f
-1.2395883 0.55090016 -0.09772165 0.5195894

fc2.weight f4 [2, 1]
00000000: a4de 5e3f 7922 65bf
0.8705847 -0.89505726

fc2.bias f4 [2]
00000000: f01e cabd 3492 83bd
-0.09869182 -0.064243704
