model.pt (torch, 1933 bytes, 6 tensors)

fc1.weight f4 [2, 3]
000000 7e d7 3c 3d eb 8d 0b be d0 82 10 3b 35 6f ad 3e
       0.046103947 -0.13628356 0.0022050627 0.33873907
000010 ba 8a 02 3e 4e 38 2e be
       0.12748232 -0.17013666

fc1.bias f4 [2]
000000 a6 d8 a9 be 65 ca 25 3f
       -0.33173102 0.64761955

qnn.weight f4 [4]
000000 c4 9a 4f be 4f cf ab 3f 3a 4d f4 3b 39 c1 c8 3f
       -0.20273882 1.342264 0.007455495 1.5683967

qnn._weights f4 [4]
000000 c4 9a 4f be 4f cf ab 3f 3a 4d f4 3b 39 c1 c8 3f
       -0.20273882 1.342264 0.007455495 1.5683967

fc2.weight f4 [2, 1]
000000 db 7b 19 bf 15 c9 b4 3f
       -0.59954613 1.4123865

fc2.bias f4 [2]
000000 96 4b 51 bf 88 53 6c be
       -0.8175596 -0.2307874
