model.pt (torch, 1933 bytes, 6 tensors)

fc1.weight f4 [2, 2]
000000 08 6f 13 bf 1e 0a 01 3f 18 8c a6 be 1d e5 19 be
       -0.57591295 0.5040606 -0.32528758 -0.15028806

fc1.bias f4 [2]
000000 0b ca d5 be 46 c7 08 3e
       -0.4175571 0.13357267

qnn.weight f4 [4]
000000 dc 6e 91 3f c3 db 9f 3e f2 e0 98 bf c3 bb 2f bf
       1.1361957 0.31222352 -1.1943648 -0.68645877

qnn._weights f4 [4]
000000 dc 6e 91 3f c3 db 9f 3e f2 e0 98 bf c3 bb 2f bf
       1.1361957 0.31222352 -1.1943648 -0.68645877

fc2.weight f4 [2, 1]
000000 5c 1a 3e bf d8 93 36 3f
       -0.7425897 0.7131934

fc2.bias f4 [2]
000000 7b d3 98 be 64 e0 70 be
       -0.29848847 -0.23523098
